A2/softmax_best_model.pt (torch, 247059 bytes, 1 tensors)

W f8 [3073, 10]
0	0x3f850031f7a1ec65	0.010254278535503933
1	0xbf810ce59a1c0da4	-0.008325380101729625
2	0xbf80201364bbe7eb	-0.007873679649026818
3	0xbf8c1d22ece902d2	-0.013727448325086131
4	0xbfa804771d2ac830	-0.04690906744998846
5	0xbf8cc58ed6623d6e	-0.014048686902497134
6	0x3f94c1f8f8e69a4a	0.020271196548174587
7	0xbf6917e100331736	-0.003063144163749333
8	0x3fb190c895f72050	0.06861547147048097
9	0xbf7546a7a0a7ecc9	-0.005194334788480145
10	0xbf7f13e5a204482f	-0.007587334636143735
11	0xbf77fed4c8985372	-0.005858260331952235
12	0x3f94a8141f63bbc3	0.020172418990963125
13	0x3f5d656c9184adf2	0.001794200919969732
14	0xbf6d007345ec651b	-0.0035402537754519853
15	0xbfa32ce45326d2ce	-0.03745187296900597
16	0x3f9fa5574c403254	0.030904163388230835
17	0xbf9c32ea153bf8fc	-0.02753797297099768
18	0x3fabe4db92d86e7c	0.05448042075678658
19	0xbf99fc434d1cb95b	-0.02537636907725847
20	0xbf93c03cdd6b6fb2	-0.01928801633299288
21	0x3f727890c16864a4	0.00450951142422543
22	0x3fa08effe1fcba55	0.0323409999240211
23	0x3f697b515136a16c	0.0031105602481213326
24	0x3f8a911c925bd4cc	0.012972090927613776
25	0xbf9e606e0b12fe79	-0.029664725709834337
26	0x3f9640af5712abcf	0.021731128396520746
27	0xbf949e36ae97de5d	-0.02013478699333714
28	0x3fa3e8f29e7177c3	0.03888662513848786
29	0xbfa6c3d37a9c1f4e	-0.04446278449728301
30	0xbf82241a7cb659ab	-0.008857924395482572
31	0x3f56fb49dc9790cb	0.0014026852899116534
32	0x3f926284e23b78eb	0.017953945453762648
33	0xbf6d4c847bba702c	-0.003576525455924814
34	0x3f8ae5bafa54735b	0.013133488430463627
35	0x3f54099e99c41be0	0.0012229966005763357
36	0x3f6991571fe99b29	0.003121061482761607
37	0xbf97617e60f1f2bd	-0.022832846324024148
38	0x3fa6b86fb8737932	0.04437588812446548
39	0xbfa7861ed8724d06	-0.045945133134546665
40	0x3f742adc520f0e31	0.004923687579267575
41	0x3f894f12a0075fa9	0.012357850559894095
42	0x3f6f9834ea854265	0.0038567574994561754
43	0xbf83a7a02fd0fca6	-0.009597064456214287
44	0x3f9c89aa8f013d1e	0.027868905046770746
45	0x3f86c10f51fe8fc6	0.011110419931192338
46	0xbf870da356f0c6cb	-0.011256481257166403
47	0xbf9be9a434d86215	-0.027258458829324612
48	0x3fa10feae3e2793d	0.03332456619067379
49	0xbfa73562585bd1f6	-0.04532916382405354
50	0x3f7f42e01fc2d4bb	0.007632136807093899
51	0xbf7a08354812365c	-0.006355484133690217
52	0x3f89493e6102c444	0.01234673245957841
53	0xbf8668c6bb0de838	-0.010942032416768041
54	0x3f840c8d5f7fc786	0.009789566494848644
55	0x3f6490187c63af15	0.002510116409316763
56	0x3f673e46c93f2b65	0.002837312940731906
57	0x3f8668e6d3356236	0.010942271538327036
58	0x3f9ae71bd1d0405f	0.026272234612463637
59	0xbfac2d6781de16bc	-0.055033907511682995
60	0xbf62cb8a64ca8c28	-0.0022943213464983354
61	0xbf6d755cfb423a28	-0.0035960022015111455
62	0x3f93a5c20af5a392	0.01918700401202817
63	0xbf51ab23a2f00f40	-0.0010784004223304972
64	0x3f68f342ccf387c9	0.0030456833552401125
65	0x3f82f403893ed96a	0.009254481912517949
66	0x3f53243d147e1405	0.001168307922825963
67	0xbf5808db38827a8f	-0.001466955263857681
68	0x3f997f5794147fbc	0.02489983407315298
69	0xbfa92662c70b0531	-0.04912098579144198
70	0xbf8868ee7b21b417	-0.011918891079597356
71	0xbf5d8a08e1210814	-0.0018029295647612508
72	0x3f96a3c8dc36e1f5	0.022109163704699914
73	0x3f9da83957ede6c1	0.02896203612497206
74	0x3f729e915a6d90e2	0.004545753274985938
75	0xbf5af67ad91a2b05	-0.0016456794441263589
76	0x3f6bd0b37732bb08	0.0033954148471687685
77	0xbf9dea9c5e4c7bbf	-0.029215281730212924
78	0x3fa0262864766d40	0.031541120780469445
79	0xbfa7897936bc2b25	-0.04597071450378668
80	0xbf8de8efb03a55ee	-0.014604446950481322
81	0x3f853d7b4e983d20	0.010371173225421304
82	0x3f666786d89a0e85	0.0027349122727303187
83	0x3f926860e9166e6a	0.01797629759458489
84	0x3f921bbd5a48c40b	0.01768394340087202
85	0xbf99d94e363aa9ff	-0.025243017253766094
86	0x3fa4c614dc36709a	0.04057374179976243
87	0xbfa46531bcff5a5b	-0.03983455116365483
88	0x3f9388b41bd2a661	0.019076170156642983
89	0xbf9d6b6eeef019b4	-0.028730138143169007
90	0xbf944e1cf47bf562	-0.019829227850086346
91	0x3f91e636dcf40a1f	0.017479760394971785
92	0xbf2514756d1803e0	-0.00016082700180677836
93	0x3f8be458359626d6	0.013619126448947066
94	0x3f9fb27bab5a9f1d	0.03095429643022306
95	0xbf6187f5f33557bf	-0.002140026446492776
96	0x3f999d579d0f7c9d	0.025014275513851037
97	0xbfa28187d2a07691	-0.036144489728241365
98	0x3f862626037ff5db	0.01081494997196846
99	0xbfa44797989bd1ed	-0.03960870492838695
100	0xbf924ba8a032c963	-0.01786674001477574
101	0xbf4be929577c475a	-0.0008517696250882432
102	0xbf43ac23ed80a608	-0.0006003547123373818
103	0x3f875e500bc456a2	0.011410355910395357
104	0x3f9bee3da51b9840	0.02727600403058994
105	0x3f934dc743fa165f	0.01885138847730727
106	0x3f90c02bef92ad70	0.016358076569912894
107	0xbfa28a9e3da60670	-0.03621382238908388
108	0x3f8f4c169cf2d328	0.01528184572667042
109	0xbfa139c9238df181	-0.033643994894165814
110	0xbf6892dfc9a1ba7c	-0.0029997225620300143
111	0x3f681e15663281d6	0.0029440324738774044
112	0x3f6a2dbc9cb99110	0.0031956371147307053
113	0x3f9dd025c45f2ce8	0.029114332304556095
114	0x3f810d5fcf5dcc29	0.008326290622539716
115	0x3f8a9e8aa25ac5f3	0.012997706489247007
116	0xbf79e2b83ab7f7e3	-0.0063197323283912
117	0xbf94c2818ebb40cc	-0.020273231827389535
118	0x3f6f2f970221ea14	0.0038068723088689003
119	0xbf9f888585537266	-0.030794225943156305
120	0xbf83941c3e1c8a80	-0.00955984177159519
121	0x3faa50d1bdfa6ecc	0.051397852364258506
122	0xbf7a9aea1ef0a639	-0.006495394262893189
123	0x3f97369be9a0609c	0.022669254431179384
124	0x3f6a1bb7c88bf753	0.0031870450515033926
125	0xbf52bff857e5a6b9	-0.0011444020488746
126	0xbf81ff86445346cc	-0.008788155517695094
127	0xbf94d349475f48ce	-0.020337243062223113
128	0xbf81ae5992040de0	-0.008633327263402657
129	0xbf96d460c947b4c9	-0.022294533047831053
130	0xbf7e330f6b909161	-0.007372913584763858
131	0x3fa0efa2f99356b9	0.0330782823236126
132	0x3f808ae3f4270997	0.008077412498896304
133	0x3f8fd0103d416d52	0.015533568257686401
134	0x3f72ff4ee63d563b	0.004638012123753972
135	0xbf846157cc8f7231	-0.009951291971384087
136	0x3f95abe2b03b29d0	0.02116350365285219
137	0xbfa60889747bc6c3	-0.04303388163488144
138	0xbf69df2367165364	-0.00315815844141769
139	0xbf936de4c938bf61	-0.01897389867934807
140	0xbf87cfc20bd90e82	-0.011626735674446612
141	0x3f89d64d75447e86	0.012615780965062894
142	0x3f95b317f8e47bf1	0.02119100052470552
143	0x3f88bd737cd4bbb9	0.01208009934143016
144	0x3f92e7cd328b6954	0.01846237774848565
145	0xbf8cf0bd65da95b4	-0.014131049795944907
146	0x3f7021c41dd4249f	0.003938451843404383
147	0xbfa4f8ca879c3b5e	-0.040960625699986805
148	0x3f52828011401cff	0.001129746499829498
149	0xbf661548d03db47e	-0.002695696080925957
150	0xbf8ea459591663a7	-0.014961908370240652
151	0x3f85fdb0b78cde91	0.010737782098302591
152	0x3fa589b41d2b9e80	0.04206621986469106
153	0x3f922c27f32650d8	0.017746566978147665
154	0x3f9520c41c25f915	0.020632805078542555
155	0xbf9bc95e1f70e031	-0.02713534418964531
156	0xbf955b1f626033c7	-0.020855417613393514
157	0xbfa153a90ace370f	-0.03384140259650625
158	0x3f8bb4ce9240c6ee	0.013528455580032763
159	0xbf80372f835c990e	-0.007917758175221692
160	0xbf8db3bd0c733b10	-0.014502980177352437
161	0x3f899e1892eb5a41	0.012508575423834436
162	0x3f9aa0794f485ef7	0.026002784217864918
163	0x3f852a147c9888a5	0.010334167530406122
164	0x3f961dcd243812fb	0.02159805806697344
165	0xbf9ce5799e999b89	-0.02821912794606932
166	0xbf8ed165693eba72	-0.015047828935931682
167	0xbf9cb8f4c779cd27	-0.028049301791225247
168	0x3f92c71f6687ee23	0.01833771765994475
169	0xbf683bec972dcd8c	-0.0029582615765606
170	0xbf8212782e47bc7e	-0.00882429019199393
171	0x3f77029848749a12	0.005617709022124122
172	0x3f76470e9ca793b6	0.005438859060153447
173	0xbf3b3468cf18aef0	-0.00041511114895585646
174	0x3f96df9708fa286f	0.022337303088115264
175	0xbf87a32a7d8d8d0d	-0.011541683155604799
176	0xbf7fb1cdc1044aaf	-0.007737926222278687
177	0xbf99608035718c5e	-0.024782183896956737
178	0x3f81f04d85d435f0	0.008759122511515977
179	0x3f86d3f18601eb28	0.011146437551578695
180	0xbf90c84a0c0bcb0f	-0.01638904284022674
181	0x3f53327850c8c6c1	0.0011717009503055406
182	0xbf9abaffd4a5a147	-0.026103970865194694
183	0x3fa0228198307a53	0.031513261630824595
184	0x3f9b004b5fa58ac6	0.026368310654457237
185	0xbf908d6458365bc3	-0.01616436756520635
186	0x3f8bb77c53823e06	0.013533564852223467
187	0xbf9872fd0354d489	-0.023876145675974434
188	0x3f5012423b65a611	0.0009809157177990172
189	0x3f825a2754c42752	0.008961016916618245
190	0xbf99d14c17145a19	-0.025212468060170055
191	0x3f8134fd24cc8af9	0.008401849446789
192	0xbf94479a4b35b4c3	-0.01980439266246915
193	0x3f996eb56657cffe	0.024836382266542494
194	0x3fa04c63951031e7	0.031832801767538936
195	0xbf6a1b4988ea7413	-0.0031868396975611806
196	0x3f7c09843e698619	0.006845013215384132
197	0xbf8dd2f386386398	-0.01456251386029965
198	0xbf60bdab1c857233	-0.0020435659427404883
199	0xbf7d19cb7d6008d3	-0.007104678041289075
200	0xbf9110f3d1d6b4ee	-0.0166662308526399
201	0x3f966049366265eb	0.021851676887853982
202	0xbf71909ab50552c9	-0.0042882960554677186
203	0x3f8e743dc764f0ff	0.01487015022996063
204	0x3f94b44c20b182b6	0.020219029899069617
205	0x3f7ca721b86f143e	0.006995326729286209
206	0xbf32d0d9c21e9715	-0.0002871066700386044
207	0xbfa14e64a35ebf00	-0.03380121702445926
208	0x3f83f77ec1bda4e4	0.009749403274059217
209	0xbf931679b0e72ea4	-0.01864042417746127
210	0xbf9428f019db718c	-0.01968741567439873
211	0x3f912e929473f4a4	0.016779222784852124
212	0x3f844a9831dd464a	0.009907902738322556
213	0x3f724f4a9dcbf760	0.004470149488723013
214	0x3f8ed3fb49adfdf4	0.01505276030161349
215	0x3f97cbb0870ecf0e	0.02323795151069335
216	0xbf8c314308172005	-0.013765834507367467
217	0xbf9e53ead9cdd712	-0.029616994422631278
218	0x3f973796f71ca916	0.02267299540759734
219	0xbf9dbf0378c02b40	-0.029048971409831426
220	0xbf8dcc696175f91d	-0.01455004051853997
221	0x3f81b44dbef7d04c	0.008644683256513151
222	0x3f86dd9de74e9102	0.011164888020922085
223	0x3f956005808c37f4	0.020874105425768577
224	0x3f94c733cb79eb74	0.020291146558956766
225	0x3f8c9c783f36505a	0.013970317296106472
226	0xbf936fa37a1aac40	-0.018980554893158308
227	0xbf9906d81a883c60	-0.02444017087878725
228	0x3f90d5760fab0881	0.016439289766602364
229	0xbfa11b60aa810368	-0.03341199952456614
230	0xbf8b9caafec145fa	-0.013482414149765799
231	0x3f9e9282f64a282b	0.029855772287682363
232	0x3f6eded29dd711bb	0.0037683595280404137
233	0x3fac691d1d70a997	0.05548945412040778
234	0x3f60a573cfcb9748	0.002032018847205306
235	0x3f6eb185a7baa790	0.0037467585041967635
236	0xbf8a0862c345e9a1	-0.012711307129156081
237	0xbf91ec08669510c6	-0.01750195623505204
238	0x3f8aa3a439a4dd64	0.013007433900027628
239	0xbfb06fba0bcf437f	-0.064204814799508
240	0xbf9228ab78123964	-0.017733267978252157
241	0x3f966caec4daa386	0.021898966565149468
242	0x3f87528b6d1805a9	0.011387910143642115
243	0x3fab1d8ba78fbdd9	0.05295978947094299
244	0xbf8807fca7c5f84c	-0.011733983869586372
245	0x3f764e67a4471d28	0.005445866442136883
246	0xbf7dcefbca19f53e	-0.007277473023007018
247	0xbf65d81d62085150	-0.00266652811866145
248	0x3f8fd607ced19486	0.015544949530701634
249	0xbfb15d04fe5dba61	-0.06782561502562025
250	0xbf9621886ad40776	-0.02161229278590989
251	0x3f7e471b6e9e21d9	0.007392031819002353
252	0x3f15b6b8d9a5f5ac	8.283141361250271e-05
253	0x3fa8f59f904aaa6f	0.04874895702717629
254	0x3f86cd33a455bed7	0.011133578732113332
255	0xbf81aa711d8f2bd3	-0.00862587329347334
